…
X_train = scaler.fit_transform(X_train)   # fit ONLY on train!
X_val   = scaler.transform(X_val)
X_test  = scaler.transform(X_test)

print(f"Train set : X={X_train.shape} y={y_train.shape}")
print(f"Val   set : X={X_val.shape}  y={y_val.shape}")
print(f"Test  set : X={X_test.shape}  y={y_test.shape}")`}
      </Cell>

      <SectionHeader n="11.1.4" title="Building the Neural Network" color="success" />
      <Cell num={6} output={`Model: "ChurnANN"\n__________________________________________________\n Layer (type)           Output Shape   Param #\n==================================================\n dense (Dense)          (None, 64)      1,984\n batch_norm (BN)        (None, 64)        256\n dropout (Dropout)      (None, 64)          0\n dense_1 (Dense)        (None, 32)      2,080\n batch_norm_1 (BN)      (None, 32)        128\n dropout_1 (Dropout)    (None, 32)          0\n dense_2 (Dense)        (None, 16)        528\n dense_3 (Dense)        (None, 1)          17\n==================================================\n Total params: 4,993\n Trainable params: 4,801\n Non-trainable params: 192`}>
        {`def build_churn_model(input_dim, dropout_rate=0.3):
    """
    Binary classification ANN.
    Architecture: 30 → 64 → 32 → 16 → 1
    """
    model = keras.Sequential([
        # ── Input + first hidden block ──────────────────
        layers.Dense(64, activation='relu',
…
print(f"X_train: shape={X_train.shape}, range=[{X_train.min():.1f}, {X_train.max():.1f}]")
print(f"X_val  : shape={X_val.shape}")
print(f"X_test : shape={X_test_flat.shape}")
print(f"\\ny_train (one-hot) shape: {y_train_oh.shape}")
print(f"Example: digit {y_train_raw[0]} → {y_train_oh[0]}")`}
      </Cell>

      <SectionHeader n="12.1.3" title="Building the Neural Network" color="success" />
      <Cell num={12} output={`Model: "MNIST_ANN"\n__________________________________________________\n Layer                Output Shape    Param #\n==================================================\n flatten (Input)      (None, 784)           0\n dense_1 (Dense+BN)   (None, 512)     401,920\n batch_norm_1         (None, 512)       2,048\n dropout_1 (0.4)      (None, 512)           0\n dense_2              (None, 256)     131,328\n batch_norm_2         (None, 256)       1,024\n dropout_2 (0.3)      (None, 256)           0\n dense_3              (None, 128)      32,896\n dropout_3 (0.2)      (None, 128)           0\n output (Softmax)     (None, 10)        1,290\n==================================================\n Total params: 570,506  (~2.2 MB)`}>
        {`def build_mnist_model(input_dim=784, num_classes=10):
    """
    ANN for MNIST multi-class classification.
    Architecture: 784 → 512 → 256 → 128 → 10 (softmax)
    Decreasing dropout rates: deeper = less noise.
    """
    model = keras.Sequential([
        layers.InputLayer(input_shape=(input_dim,)),
…
df.columns = df.columns.str.strip()
df.drop('Serial No.', axis=1, errors='ignore', inplace=True)

print(f"Shape: {df.shape}")
print(f"Target:\\n  Chance of Admit : {df['Chance of Admit '].min():.2f}–{df['Chance of Admit '].max():.2f} (mean={df['Chance of Admit '].mean():.3f})")`}
      </Cell>

      <SectionHeader n="13.1.4" title="Building the Regression ANN" color="success" />
      <Cell num={14} output={`Model: "AdmissionANN_Regression"\n____________________________________________\n Layer                Output    Param #\n============================================\n dense (Dense+BN)     (None,64)   576\n dropout (0.2)        (None,64)     0\n dense_1              (None,32)  2,080\n dense_2              (None,16)    528\n output (Linear)      (None, 1)    17\n============================================\n Total params: 3,201\n\nLoss: MSE  |  Metrics: MAE, RMSE`}>
        {`def build_admission_model(input_dim=7):
    """
    Regression ANN for admission probability prediction.
    
    Key differences from classification:
      — Output layer: 1 neuron, LINEAR activation (not sigmoid/softmax)
      — Loss: MSE (not binary_crossentropy)
      — Metrics: MAE, RMSE (not accuracy)
…
